install/mlp_controller/share/mlp_controller/resource/mlp_safe_final.pt (torch, 590767 bytes, 8 tensors)

net.0.weight f4 [256, 182]
00000000: 030e 443d e221 5c3d f6d8 4f3a 9b46 c33c
00000010: 6c52 603c 2625 2a3d d2db 2b3c 7fdd a6bb
00000020: 7631 d83c 57c5 2f3c 4d9f 9f3b f3b3 e3bc
00000030: 76b3 aabc 6a40 3c3b 92e2 51bd 0eae 4a3d
00000040: d6bb 98bc 0ebe 5dbc bf42 833d 159f 6bbd
00000050: 0754 09bd 9674 2ebb 200f 5fbd 7497 543c
00000060: 9d45 883c cdb8 173d cd9f 18b9 e2b6 fd3c
00000070: 279a a6ba 9717 6abc f244 17bc a446 61bc
00000080: 1851 19bc d4de ecbb 85aa 323b 1092 52ba
00000090: b0ea 92bb cf0d 3e3c 8e7c 5c3b d297 c23a
000000a0: 1b01 adba 59f0 32bb 798a 98bc 55c1 a8bb
000000b0: e150 14bc 7cde 23bc 6b14 10bc 6eff e03b
000000c0: 30c0 5d3c 420e 993c de08 6a3c 89c9 d13b
000000d0: 309e fb3b 86ec 06bc 2ba0 88bc ae2c 10bc
000000e0: 7aa2 a6bc b21a 263b 37f9 04bd bc05 fbbc
000000f0: bafd 35bd d45f 24bd e4b5 48bd 3bba 4cbd
00000100: 640b 51bd a71c 84bd 6f94 61bd 35bd 4dbc
00000110: c33c 4abd ba64 78bd dd37 e13b 20b3 87bc
00000120: c923 3b3c 7ab5 0abd a571 b63a 74f6 133c
00000130: 19c6 9d3c b295 a43c 85ea dcbc 6c21 173b
00000140: 4e0c 4cbc b700 07bc a61c 313c 226c 21bd
00000150: b4eb 063d 0854 3c3d 09c1 9d3d b426 413d
00000160: 0776 4c3d af51 04bd c8bc e33c 7850 f53b
00000170: 89d7 5d3d 9cf6 30bc 587a 25bb cc8a e2bb
00000180: 1c87 083c 5fa2 4b3d 26af 8c3c 831b 263d
00000190: 238d 693c 91ce 05bc 7014 04bd b830 2cbd
000001a0: 034d 7abc 6561 803c 2be8 c0bc f7da 1aba
000001b0: 617e 61bb 59a9 26bb 0886 f1bb f010 8b3b
000001c0: 21a1 da3b 2a5c 903a d9a3 2ebc 66e3 813a
000001d0: 83eb ce39 0727 a5bc e3e6 593b 9751 e2bb
000001e0: e62a 76bc 60ae bcbc eaaa f4bc 1f82 65bc
000001f0: a652 fd3b 32e8 3a3c 09c4 be3c 375a 653b
00000200: e644 3a3c d704 6e3b 9c0c 683c 34a1 8bba
00000210: 1443 263c 8152 73bc 80cb 53bc 2c76 1f3c
00000220: 7ce0 763c 5e42 933c 6024 19bc fa48 993b
00000230: 690d 02bc 66b3 fa3b cad0 003c ba38 3f3b
00000240: ca38 18bc 3cc9 11bd 8840 323b 3fdb 9d3c
00000250: ce21 d53b 1a7c d2bc 0981 7bbc 86f2 e93b
00000260: 1da9 00bd 34fe a3bc 29e6 fdbb ad60 df3c
00000270: dc06 bebc c99d 6f3d 577d dcba 8029 133c
00000280: c20a f3bb b956 3fbd 3320 1ebd 9f46 833b
00000290: 4823 f0bc cf88 6fbc 7a76 ae3c 60a4 1ebc
000002a0: 3c98 28bb ede4 e63c 7cc3 8e3d 4427 463c
000002b0: 15df 353d d091 813c f3f1 55bc 85b3 cdbc
000002c0: 8fa1 953b 4781 5ebc 5aca 1fba 0c7e a33c
000002d0: 5405 233e 0f46 37bc 3926 98bd 8ae2 58bc
000002e0: f069 19bd b0df fa3c e312 30bd dbb9 0e3d
000002f0: 00b4 4a3c b040 10bd abbf 4f3c c109 0b3d
00000300: 5d53 6bbc e456 2a3d 2e6f 0cbd 27bd 4abd
00000310: efe2 d9bc b1f3 4e3d 6b1f 00bc 45bf 8ebc
00000320: 87ac c63c 048b 0abc fa7b 73bc c4f4 a5bb
00000330: af23 093d b5a1 a83c c6d1 0ebd 5f9e 133d
00000340: 33d1 2ebc 7425 063d bfb3 27bb a5aa b83c
00000350: c0ab 9c3d 61de 093d 003d 873c ebe1 ebbc
00000360: 4585 debc 212e ea3b c8e3 49bd 0074 363c
00000370: c650 1c3d 538b d6bc c9d5 1f3c 2e86 323c
00000380: 3e82 8e3c 28fa 1d3d 8d7f 793d 0839 bbbb
00000390: 1207 523c adff d1bc fd62 99bd c46f c7bd
000003a0: 1320 21bc ed44 67bc f1c5 90bc 084c c83c
000003b0: de0c aa3b 2249 57bd 92c7 023b 68ff 703c
000003c0: 9985 f1bb e5ce d5ba 457e fc3c 5e10 7cbb
000003d0: 31f4 933d 77a5 593d 2647 b73d 46e7 d4bb
000003e0: e4bd 2abd 833c b13c 96d1 30bd 850d 83bd
000003f0: 116a 1fbd 5391 b33b 38ec efbb 4b1a 8fbc
0.047864925 0.05374325 0.0007928753 0.023837378 0.013691526 0.041539334 0.010489421 -0.0050923224
0.026390772 0.010728202 0.004871285 -0.027795767 -0.020837527 0.0028724917 -0.051241465 0.049482398
-0.018644255 -0.013534082 0.06409215 -0.05752476 -0.0335274 -0.0026619784 -0.054457784 0.012975562
0.016634757 0.037041474 -0.0001455538 0.030970994 -0.0012710736 -0.014287851 -0.009232746 -0.013749752
-0.009357713 -0.0072287116 0.0027262282 -0.0008032629 -0.0044835433 0.011599972 0.0033643576 0.0014846271
-0.0013199182 -0.0027303903 -0.018620716 -0.00515 -0.009052486 -0.010001775 -0.0087939305 0.006866387
0.013534591 0.018683556 0.014284341 0.0064021987 0.0076787695 -0.0082351025 -0.016677937 -0.008799715
-0.020341147 0.0025345501 -0.032464232 -0.030642383 -0.044431426 -0.04013045 -0.04900159 -0.04998229
-0.051036254 -0.064507775 -0.055073198 -0.0125573175 -0.049374353 -0.060642935 0.0068731145 -0.016564906
0.011422106 -0.033864476 0.0013919367 0.009030927 0.0192595 0.020090912 -0.026967296 0.0023060692
-0.012454106 -0.0082399165 0.010810053 -0.039409764 0.032939628 0.045978576 0.07702834 0.04715605
0.049917247 -0.032304462 0.027799979 0.0074863993 0.05416063 -0.010800984 -0.0025249925 -0.0069135185
0.008332994 0.049715396 0.017173361 0.04055358 0.014254841 -0.008166925 -0.032246053 -0.04203865
-0.01527715 0.015671441 -0.023548206 -0.0005907262 -0.0034407603 -0.002543053 -0.007370714 0.0042439625
0.00667204 0.0011013795 -0.0106591815 0.0009909689 0.00039466852 -0.020160211 0.0033249191 -0.006906699
-0.015024876 -0.023032367 -0.029866654 -0.014008074 0.0077307997 0.011407899 0.023286836 0.00349964
0.011368966 0.0036318803 0.014163163 -0.0010652901 0.010147829 -0.014851213 -0.012926936 0.009732764
0.01506817 0.017975982 -0.009347051 0.004677889 -0.007937768 0.0076507805 0.007862279 0.0029178099
-0.009290883 -0.035592303 0.0027199108 0.019269584 0.006504274 -0.025693942 -0.015350589 0.0071395067
-0.03141128 -0.020018674 -0.0077483845 0.027267778 -0.02319663 0.058500085 -0.0016822022 0.008982062
-0.007417054 -0.046713565 -0.038604926 0.0040062214 -0.029313698 -0.01462002 0.021296728 -0.009682745
-0.0025725504 0.028185332 0.069708794 0.012094323 0.0444022 0.0158166 -0.0130581735 -0.025110016
0.0045663784 -0.013580627 -0.00060955214 0.019957565 0.15920001 -0.011186137 -0.074291654 -0.013237605
-0.037454545 0.03062424 -0.04298676 0.034845214 0.012372017 -0.03521794 0.012679975 0.03394485
-0.014363137 0.04158677 -0.034285717 -0.049496796 -0.026597468 0.05052537 -0.007819991 -0.017425189
0.02425219 -0.0084559955 -0.014861101 -0.0050645787 0.033481296 0.02058492 -0.034868024 0.036039706
-0.010669994 0.03275056 -0.0025589315 0.022542307 0.07649946 0.033659343 0.01650858 -0.02879425
-0.027163157 0.0071466123 -0.049289495 0.011136055 0.03816297 -0.026189482 0.00975556 0.010896249
0.017396089 0.038568646 0.060912658 -0.0057135858 0.0128190685 -0.025634611 -0.07489584 -0.097381145
-0.009834307 -0.014115554 -0.01767251 0.024450317 0.005189522 -0.05255998 0.001995538 0.014709331
-0.0073706624 -0.001631227 0.030821929 -0.0038461904 0.0722431 0.053136315 0.08949117 -0.0064972965
-0.041685 0.0216353 -0.043168627 -0.06399063 -0.038919512 0.0054799705 -0.0073218606 -0.017468592

net.0.bias f4 [256]
00000000: 8756 d3bd 1330 e6be 5927 21be 8b47 3fbe
00000010: e1d3 f5bc f774 cfbd 7562 88be fabe 04bd
00000020: 2483 85bd 7b0a f3bd b7f0 aabe b5dc cabe
00000030: 3b84 babe 79dd 9abe 9627 cebd 2459 c03b
00000040: ec49 36be 8998 c1bc f5a4 09be 757f 41bd
00000050: 0786 a1be 17c1 e1be 3cc0 f5bd 1098 adbe
00000060: 1ee8 51be a501 89bb b479 fbbe 4962 57ba
00000070: 630a 58be a0bb 0ebe 0d89 d1be 3a07 55be
00000080: 6259 93be 8a68 60bd dd3b 323d 9316 c5be
00000090: 2951 93be b4f4 533d 1800 6bbd 5fe7 ca3c
000000a0: 801d 54be 44b2 98be 7236 43be 0617 08be
000000b0: 6fae 65be d121 e5bd 096a bdbe 1dc7 1d3e
000000c0: 64f8 f0bc d334 dcbd 3594 993c 6e0b c8bc
000000d0: f9ac bebe f905 343d ad23 40be c8b8 b5bd
000000e0: c35c 19be 13e3 f3be 4e3b 50be a1a9 a4bd
000000f0: 819b 0fbe d890 ea3c 8f7f eabd d2e0 6fbe
00000100: 2c56 91be 0a3c 96bd 9d07 7ebe f00d e7bd
00000110: 0755 03be f903 56be d7c8 2cbe ee50 cabd
00000120: 57fa f8bd 808f fcbd 73bf 1ebe 88c5 a6be
00000130: 295e b2be 0fb7 a3be d932 0f3d b948 5fbe
00000140: 2abf 57be 1d3e bdbe 643a 12bd a790 88be
00000150: a186 30be b799 4ebd 0b7d 03be ddf9 0cbf
00000160: 8390 19be 94e7 7fbe 3496 4abe 2dcf 8fbd
00000170: 7771 9abd 4799 bbbe 84f4 ccbd c5a2 1dbd
00000180: a2f0 06bf d2e9 7abe 3ae1 413c 4813 80bc
00000190: 8898 52bd 9ab7 47be 5c5b b2be d8c7 513c
000001a0: fc6a a6bd f17e 8dbd b651 03be cc29 9fbe
000001b0: b70a 3fbe 9a72 c7be fedc 91bd f910 8abe
000001c0: 876c be3c caa1 8abe 58dd 09be a57a 61be
000001d0: b47e f2bc 73b1 06be f9c1 0cbf a2d0 dabd
000001e0: f8fd cabe 0769 523d de9c 41be 0271 c2be
000001f0: a29b cabd 7889 7fbe 5e19 b1be 9c22 5cbd
00000200: 0ff3 3dbd dee9 49be 7578 42bd f8d6 65be
00000210: 265b 81be 0d5c 76be eff2 cfbe e537 a0be
00000220: 004b 93be 142e b8bd 6cbd 15bd 95bf 3cbe
00000230: e96c 9bbe 9103 22bf f78e 8fbe 9030 aabe
00000240: 144b 9bbd ea6c aabe ec44 afbe d083 28be
00000250: 6e49 e3be 62dc 62be e52d 85bd 5ae3 adbd
00000260: c7a3 6bbd 57c4 70be b02f 36be 1099 a6be
00000270: dfc5 92be 2ad7 02be 3313 84bd 4f2d 17bd
00000280: bccc fbbd e5b4 efbd 218f cfbd 95d0 52bd
00000290: 7e9a 25ba 7303 62bd bba4 40be ccf7 053c
000002a0: 6b8d 9fbd 361a 35be 5567 a3be 517e 83be
000002b0: 8503 1ebe ef96 92be 5512 89bd ca5e 71bd
000002c0: 400c debd f649 98be cb23 4bbe a86e 83be
000002d0: 1e1e 9ebd bdac 03be b0ac f1bd 0d36 3bbe
000002e0: 0fc7 94be ee45 0bbe ad4c a13c f0c4 c7be
000002f0: 413e 333e 4234 66bd 08d0 37bd 3155 80bd
00000300: d694 95be 49c1 42be 7921 60bd 2124 da3c
00000310: ff0b 26be a01e bebe f3b2 803b 7a28 a0bd
00000320: 0a06 cabc 3b8e a7be d620 9fbe dde7 24bd
00000330: 1d1f 42bd 2c43 29be 80d7 8bbe 21de 1dbe
00000340: f998 fc3d 89a5 94be 4605 c5bd 0f51 f0bd
00000350: 4868 25bc ce54 aabc 9b35 e7be 80ed c0be
00000360: 45da cfbd 803d 70be 012f 85be f576 07be
00000370: a163 e0be b6a5 dfbc fcb2 fdbc 76b5 f4bd
00000380: 8be2 ce3c 8cf5 a8be 3c6d 1fbe 111e 46bd
00000390: 7175 14be 30e2 31be c937 93be a365 02be
000003a0: 1847 e2be d3b8 53be d27b d7be 804e d4bd
000003b0: 16be b2bd 070f 03bf 5c0e 283e 5eb6 95be
000003c0: 4783 97bd 784e 0abe c1be 83bd cb8c 38ba
000003d0: d0f1 18be 0796 94be bedf 64be 5905 cabd
000003e0: 68e4 a4bc 0a02 5bbe aecc 49be 6145 c6bd
000003f0: 691d c6bd 83b1 21be 5c04 75bc 65b0 713c
-0.10319238 -0.44958553 -0.15737666 -0.18679635 -0.030008258 -0.10129731 -0.26637617 -0.032408692
-0.06519154 -0.11867233 -0.33386776 -0.3962151 -0.3642901 -0.30247095 -0.10066144 0.0058700014
-0.17801636 -0.023632305 -0.13441832 -0.047240693 -0.31547567 -0.44092628 -0.119995564 -0.33905077
-0.20498702 -0.0041811042 -0.4911629 -0.0008216245 -0.21097712 -0.13938761 -0.40924874 -0.20803538
-0.2877913 -0.054787196 0.04351412 -0.38493785 -0.28772858 0.05174704 -0.057373136 0.02476853
-0.20714378 -0.29823506 -0.19063738 -0.13290033 -0.22429822 -0.111880906 -0.3699496 0.15407987
-0.029415317 -0.10752263 0.018747428 -0.024419513 -0.37241343 0.04395101 -0.18763609 -0.08873135
-0.14976792 -0.4763418 -0.20335123 -0.08040167 -0.14024164 0.02863352 -0.11450111 -0.23425606
-0.28386056 -0.0733567 -0.24807592 -0.11281955 -0.12825404 -0.20899953 -0.1687349 -0.09878717
-0.121571235 -0.12332058 -0.1550272 -0.3257258 -0.34837463 -0.319756 0.0349606 -0.21805085
-0.21069017 -0.3696145 -0.035700217 -0.2667286 -0.17238857 -0.050439563 -0.12840669 -0.5506876
-0.14996533 -0.24990684 -0.1978386 -0.070219375 -0.07541173 -0.3664038 -0.10007575 -0.038485307
-0.52710927 -0.24503258 0.011833483 -0.015634194 -0.051414996 -0.19503632 -0.34835327 0.012803994
-0.081258744 -0.06908978 -0.12824139 -0.31086576 -0.18656431 -0.38954622 -0.07122229 -0.26966074
0.02324511 -0.2707656 -0.13463342 -0.22019441 -0.029601432 -0.13153629 -0.5498348 -0.10684325
-0.39646888 0.051369693 -0.18907496 -0.37976843 -0.09892966 -0.24954784 -0.34589666 -0.053743944
-0.046374377 -0.1971812 -0.047478158 -0.22445285 -0.25264853 -0.24058552 -0.4061503 -0.31292644
-0.28768158 -0.08993164 -0.0365576 -0.18432458 -0.3035653 -0.6328669 -0.2803876 -0.33240175
-0.075826794 -0.3328622 -0.3423227 -0.16456532 -0.4439196 -0.22154382 -0.06502894 -0.084906295
-0.057529237 -0.23512398 -0.17791629 -0.32538652 -0.2866659 -0.12777391 -0.064489745 -0.036908444
-0.12294909 -0.11704425 -0.101347215 -0.05146845 -0.00063172716 -0.05517907 -0.1881284 0.008176755
-0.07790645 -0.1768578 -0.31914774 -0.2568231 -0.1543103 -0.28630778 -0.0669295 -0.05892829
-0.1084218 -0.29743928 -0.19837873 -0.25670362 -0.07720588 -0.12858863 -0.11800516 -0.18282337
-0.2905812 -0.13600895 0.019689882 -0.3901744 0.17504217 -0.05620218 -0.04487613 -0.06266249
-0.29215115 -0.19019045 -0.054719422 0.026628556 -0.16215514 -0.3713274 0.0039275824 -0.0782022
-0.024661083 -0.327257 -0.3107974 -0.040260185 -0.047392953 -0.1652953 -0.2731285 -0.15416767
0.12333865 -0.29032543 -0.096201465 -0.11734211 -0.010095663 -0.020792391 -0.45158085 -0.37681198
-0.101490535 -0.2346096 -0.26012424 -0.13228972 -0.4382601 -0.027300697 -0.030969135 -0.119486734
0.025254508 -0.32999837 -0.15569013 -0.048368517 -0.14497925 -0.1737144 -0.28753498 -0.12734084
-0.44194865 -0.20675974 -0.42086655 -0.10366535 -0.08727662 -0.51194805 0.16411728 -0.29240698
-0.07398086 -0.13506496 -0.06432868 -0.0007040023 -0.14935994 -0.29020712 -0.22350976 -0.09864301
-0.020128444 -0.21387497 -0.19706985 -0.09681202 -0.09673578 -0.15790372 -0.014954653 0.014751528

net.3.weight f4 [256, 256]
00000000: 5982 b83b 9a02 a3bd cb61 1f3d 3468 88bc
00000010: cf53 e23c 7510 38bb 95c8 87bc 031f 12bd
00000020: a15d 173d a95d 2fbb ffb9 523c abaa 1b3d
00000030: 5118 cbbc a3f8 80bc a1a5 00bc 194e d83b
00000040: b9df 37bc fe10 473c 59f5 49bd c35f 7dbd
00000050: d449 adbc 17f5 4b3c 2155 d5ba 1e55 1c3c
00000060: 8d69 aabc d525 043c 3989 d8bc f73f 41bc
00000070: fa97 67bd 6fdb 4abc cb2c d5bb 875f 50bc
00000080: c903 153d 29ad 133c 87b1 7d3c cf5a 063b
00000090: a0e8 c13c 7985 b33b 8659 473d dcda 1b3d
000000a0: de48 28bd 7039 f83a 3974 f53c fd91 2e3d
000000b0: 5b1a dcbc f5d2 a2bb 78d9 493d 8c99 803c
000000c0: ff90 2b3d 7748 4f3d 887e cdba a51b e8bb
000000d0: fe00 923d 74bc 673c fcc8 803d 98a7 37bc
000000e0: 548b babc f35b 82bd 585c 5e3d 93fd b73c
000000f0: 9bc2 fc3c 4545 e43b 72fc 70bc 3af2 8c3c
00000100: 205f dd3c d1d1 313d 6d65 4bb9 aa6a c93c
00000110: 4fe9 00bd c1c7 b93d 2003 a83d 3f9a d33c
00000120: e8c8 c8bb 9999 13bc b2e0 393d 30ba 97bc
00000130: 4859 d4bd 84aa 80bd 1349 a03c c360 24bd
00000140: 46a1 0dbc 5acc 3bbd d4c0 093d cde5 f8bc
00000150: 904d 40bd 3c2d 9b3c 977a 0bbc 9a2a 8bbc
00000160: 9e4b 58bd d6c3 8abc bbdf 2b3d a557 cf3b
00000170: 2e87 4d3d 36f5 c93b 7531 933c ef66 20bc
00000180: ba6e 20bd 774c 023d 4332 44bd 0977 f63c
00000190: 173a 403c 309f e53c b482 0fbd 8226 193d
000001a0: 610a 0b3b d1a6 2abd 2707 08bd 08b6 3f3c
000001b0: 87f7 11bd 6b86 4bbd 4800 e33b 296e 66bc
000001c0: 2388 e2bc 312a 36bd 5d2c db3c d05e 17bd
000001d0: 18c6 89bc acc0 22bd 5e2e 1e3b bcae 40bc
000001e0: 2612 88bd ce4e a73c 66ca a13a 3204 ab3c
000001f0: edf5 6dbc f1ea 1bbd 2a2d ce38 b560 99bc
00000200: bc53 e53c 3022 e2bc 74a8 f9bb 0791 933a
00000210: e2b4 2ebd bdeb 373d d5f4 27bc 0244 60bb
00000220: bf64 6e3b c3dc 183c 939f 713b 4cc4 9abc
00000230: 31da 96bb 2a07 12bd 023a 9fbc a637 03bd
00000240: 3a9c b6bc 1173 e3bc 9a34 95bd 2a9e 41bd
00000250: 75e6 c83c 30ea 4ebd e4e1 acbc a302 7ebd
00000260: 2339 673c d749 69bd a373 22bc 3411 b13b
00000270: 3e96 40bc 8dfc 18bd 2783 3bbd 70ed 243c
00000280: 7387 783c f0fa 4d3c 8a9e 603c 9c37 2bbd
00000290: 0062 903b 9e53 b5bb eb2e 56bd f13a b8ba
000002a0: b956 d2bc 9f5b 64bc c836 e83c a57b 29bd
000002b0: 32b4 f1bc cafb be3c 2016 59bd 0833 853b
000002c0: 1552 9e3c 156f 8ebd d129 de3c 5b39 8ebc
000002d0: e66f 1fbc 7d09 f9bc 6ab8 bdbb f793 8a3b
000002e0: b230 6d3d 2ec4 c03c 9cd8 3e3d 20ba 3b3d
000002f0: 89a7 683d 24a3 e9bb 4b46 873c b899 003d
00000300: 8050 583d 0a9f 3dbd 639a 913c 4581 6e3c
00000310: 79e3 e9bc 904d 36bd 6c39 43bc 9a55 213d
00000320: d10a 403c 62e4 f138 63cb a7bc 7e43 81bc
00000330: 614f b7bb f207 3a3c 98d3 fb3c cc3d 94bc
00000340: b18c be3c b355 b73b 32dc e7bb 0b71 44bc
00000350: 385e 13bd 7ed5 993b 147a 13bd 5539 6bbc
00000360: 9729 6d3b 76f2 5ebd f51a 803c 66a1 2fbc
00000370: 82ec f8bc dd67 31bd 7865 2f3d 8b25 d93c
00000380: 7dc6 e43c bd3a d53b aa81 8f3b 8add a8bc
00000390: 05cc cebc cf4f f2bb e60d 2a3a b649 a5bc
000003a0: 8542 39bd 5041 f13c ecf6 8b3c d00f 06bd
000003b0: 5df5 28bd 523c c6bd 506f acbc 1eff 68bd
000003c0: 665b 4dbc 63d7 353b f7ae 5e3d c89a f03c
000003d0: d872 45bd b85c a73c 295e bfbc 6909 efbb
000003e0: 69cb 4dbc 9057 2c3d e7fa 8b39 0247 cd3c
000003f0: ed7c d43c 2042 543d 3961 8ebc 9ad7 033d
0.005630773 -0.079594806 0.038911622 -0.01665125 0.027627854 -0.002808598 -0.016575137 -0.035674106
0.036954526 -0.0026758707 0.012861728 0.03800456 -0.024791868 -0.01574356 -0.007851989 0.006601107
-0.011222773 0.012150047 -0.049306247 -0.061858904 -0.021153368 0.012448571 -0.0016275981 0.009541778
-0.020802284 0.0080656605 -0.02643262 -0.011795036 -0.05654142 -0.012381419 -0.006505584 -0.012718088
0.036380563 0.009013453 0.01548422 0.0020500903 0.023670495 0.0054785577 0.04866936 0.038050517
-0.041085117 0.0018938016 0.029962646 0.042619694 -0.026868036 -0.0049689957 0.04927966 0.015698217
0.041886326 0.050606217 -0.0015677968 -0.0070833736 0.071290955 0.014144052 0.06288335 -0.011209391
-0.022771515 -0.06365194 0.054287285 0.02245978 0.030854514 0.0069662654 -0.014708625 0.017205346
0.027022898 0.043412987 -0.00019397373 0.024586994 -0.0314725 0.09071303 0.08203721 0.025830386
-0.0061274655 -0.0090087885 0.0453803 -0.018521398 -0.103685915 -0.06282523 0.019566095 -0.04013134
-0.008644408 -0.04584918 0.03363116 -0.030383015 -0.04694897 0.018942468 -0.008513114 -0.016988087
-0.05280649 -0.016939085 0.041961413 0.0063275867 0.050177746 0.0061632646 0.017967919 -0.009790166
-0.039168097 0.031811204 -0.047899496 0.030086057 0.0117326 0.028030008 -0.035036758 0.03739024
0.0021215903 -0.041662995 -0.033209946 0.0117011145 -0.03563645 -0.049688738 0.0069275238 -0.01406435
-0.027652806 -0.04447383 0.026754552 -0.036955655 -0.016818091 -0.039734527 0.0024136524 -0.01176041
-0.066440865 0.02042332 0.0012343645 0.020876024 -0.014523965 -0.038065854 9.831258e-05 -0.018722871
0.02799403 -0.027604192 -0.007618958 0.0011258431 -0.042652972 0.044902552 -0.010251244 -0.0034220223
0.0036375967 0.009329977 0.0036868795 -0.01889243 -0.004603647 -0.035651363 -0.01943684 -0.032035492
-0.022291292 -0.027764829 -0.072854236 -0.047269978 0.024523953 -0.050516307 -0.021103807 -0.062014233
0.014112744 -0.056955185 -0.009915265 0.005403662 -0.0117545705 -0.037350226 -0.045779373 0.010066375
0.015169012 0.012572035 0.013709674 -0.04180108 0.0044062138 -0.0055336496 -0.05229084 -0.0014055652
-0.025676118 -0.01393786 0.028346434 -0.041377682 -0.02950487 0.023313422 -0.052999616 0.0040649213
0.01932625 -0.06954781 0.027119549 -0.017361334 -0.0097312685 -0.030400032 -0.005789806 0.0042290646
0.057907768 0.023531046 0.046593294 0.0458318 0.0568004 -0.0071300436 0.01651301 0.031396598
0.052811146 -0.04629425 0.017773813 0.014557187 -0.02855085 -0.044507563 -0.011915546 0.039388277
0.011721329 0.00011534315 -0.020482725 -0.015779253 -0.0055941795 0.011354433 0.030740544 -0.018095873
0.023260446 0.005594933 -0.00707581 -0.011989842 -0.035978526 0.0046946397 -0.036005095 -0.014356931
0.003618812 -0.054430448 0.015637854 -0.010719633 -0.030386213 -0.043311942 0.042821378 0.02650716
0.027926678 0.0065072463 0.004379471 -0.02061345 -0.025243768 -0.007394768 0.00064870564 -0.02017675
-0.045229454 0.029450089 0.017085515 -0.032729924 -0.04124962 -0.09679474 -0.021049172 -0.056883924
-0.012533998 0.0027746789 0.05436608 0.02937068 -0.048205227 0.020429954 -0.023360329 -0.007294823
-0.012560704 0.042075694 0.00026699083 0.025058273 0.025938476 0.051820874 -0.017380344 0.032188036

net.3.bias f4 [256]
00000000: 7442 723c 2a5c 97bc 2927 3cbc 614d 0fbb
00000010: 96ae e23d a522 c0bd c76b b63d 25b2 9d3d
00000020: 5036 82bd 7aa9 923d 199a a43d 62ce 1a3c
00000030: 960b 933d 84b9 b33b c9f1 403e 186d c53d
00000040: c9b0 7daa ae08 8ebd 0f4a 993d 963e 2a3e
00000050: 895c 47bd 0b55 6cb9 427d a53d c71a c83d
00000060: cef0 9a3e 1eec 8b3d e303 193c c758 e2bd
00000070: cf3b 463e 536d 8d3e c910 563c e0bd 3fbd
00000080: de2b 833c 3590 c73c 7de3 9096 821e 6bb7
00000090: 0577 443e c2df 3ebc c62d 7d3e a252 873d
000000a0: 7778 993e 1579 153e 37a0 423e a1e0 0ebd
000000b0: e74f 1f3d de93 513d cb69 0c3e 87dc 423e
000000c0: c443 513d ef04 a9bb 3ee2 0f3e b0da 093e
000000d0: a471 1d3e a6c8 deba 38ce 90be c3b7 243e
000000e0: a768 48b8 70df 00ba ed1e 093e 7801 ffbc
000000f0: 842b 7e3d 5860 c7bd 2094 c83e 1a9e 093e
00000100: c346 2a3d 4c3a 1d3d 6b0c 043d 8850 cc3d
00000110: 5fb2 fabc 4eac 583e 11c1 203e 6d9c bd3e
00000120: 143c 0e3e 5106 8e3d edbc 333e b444 863e
00000130: 28cf 00bd 7fd8 8c3d baef 1e3e f859 e33c
00000140: 61df 923d bb47 f5bb 0482 3bbd 48f3 6cb9
00000150: 10be 8ebd 2881 8d3e ce09 4a3e ec9e 613e
00000160: 8d7a 1a3e c67c e03d 12d6 823e 1790 64bd
00000170: aff7 f63d dd39 333e f12a 6b3d 8ca6 0a3e
00000180: 9198 d43c 4aaa 183e 48dc 5d3d 9a03 b13d
00000190: c723 a8bc 02a9 18bd bda7 773e 2dd0 283e
000001a0: e495 b7b8 58aa 23ba 04a3 87bb ccbd 633e
000001b0: 0a69 383e 6228 fe3c b5fd c93d 64ad 93bb
000001c0: 75b8 0e3e 7c27 f53b f338 4b3e 782c 583d
000001d0: 0431 883d ace7 b73d 11e8 84bd 68a6 1b3e
000001e0: 4b2e cdbc 260d 0cbd ced7 0bbc 27a3 303e
000001f0: f95e f8bc b541 3e3d 0b0d 35ba 74b0 823c
00000200: 137c bc3c 2450 35be 7aa9 713e 50ad 6c3e
00000210: c33f ecba 34b6 c6ba 8ea6 e63d 0ca0 513d
00000220: 70f1 313e 8ddc 8abd 0d9d 07be 3b60 033e
00000230: 92ef 853d a63f a1be 1e1e 5c3e b9f6 413e
00000240: 3c23 183e c699 223e 871d 883d 3f10 2e3c
00000250: 8ed2 143e 9cf6 01be 42d2 b63d 8127 c8af
00000260: cce0 273e b0ae 143e 6cc6 d33d 214c 3d3e
00000270: 53f1 bebd 66ef 4ebc 6f21 ac3a cc4c 653e
00000280: 733e 793e 6fc3 21bc 79ca f4bb e3bf fe3d
00000290: 42b4 81bc 4227 fc3b 1fa8 b2bc cf17 653e
000002a0: 1338 113e 0cb6 583d af55 b6b0 7b17 703e
000002b0: 6ad6 393d 3431 7dbd 9b20 ef3b 12c5 60bc
000002c0: b60d 233e e83e 5e3d 32bb 33bd 4326 8dbd
000002d0: 9697 853d 903c 0dbc eeae 843c d179 113d
000002e0: 1ce9 1a3e 3273 3cbc 037d f53a a2a0 ffbd
000002f0: 996b cb3d fff2 873e 7f7c 483d 90f1 2d3e
00000300: a1a2 c33d 2717 253c 574d 213e f62b 013e
00000310: 15f2 8c3d 1314 01bd c8e9 fb3d d9b9 95b8
00000320: bbe0 f13d eb97 c83c e79f a63c 02b5 14be
00000330: 7a8d 353d 5c67 41ba dd59 74bd b640 69bd
00000340: 22e2 65bd 728c 693d ed92 2cbe 9591 0abe
00000350: 6be1 cdb9 16d7 173e 5b66 e2bb e2b2 f63c
00000360: 3349 4eba 6557 f1bb 9901 03bd 3188 e0bd
00000370: eb95 3ebc 9f47 0ebd f119 7d3e e1d1 3fbd
00000380: e6cf 2fbc 0b3f 4fb7 ed42 3d3e b9ac c73c
00000390: aa30 44be 70e0 1ebb cc3a af3d e798 3a3d
000003a0: 43cc 3d3d 58a9 feba 9882 8c3d 658d fb3d
000003b0: 299a b6bd fe03 743e 38fa 563d 7e90 363c
000003c0: 626e 06be 712f 6bba 70a7 3d3e 0392 5fa8
000003d0: ebe4 d33d 5825 8dbc fb4d 003e dd58 ff3d
000003e0: 9e14 1d3e 513b 573d 306d e1ac 06d3 79b9
000003f0: 4ef9 773d 0e47 c8b9 b264 fabb 2c82 09bc
0.0147863515 -0.018476564 -0.011483946 -0.002186619 0.11068456 -0.09381608 0.08907276 0.07699994
-0.063580155 0.07161231 0.08037204 0.00944862 0.07179944 0.0054847617 0.18842234 0.096399486
-2.2532249e-13 -0.06935249 0.07484829 0.16625437 -0.048672233 -0.00022538395 0.08080532 0.097707324
0.30261844 0.06832145 0.009339306 -0.11052089 0.19358753 0.2762247 0.013065525 -0.04681194
0.016012128 0.024360755 -2.340802e-25 -1.4014195e-05 0.19186027 -0.011650028 0.24724492 0.06607558
0.2997472 0.1459697 0.1900643 -0.03488219 0.03889456 0.051166408 0.13712232 0.19029437
0.051090017 -0.005158059 0.14051148 0.13462329 0.15375382 -0.0016997054 -0.28282332 0.16085725
-4.778118e-05 -0.0004916107 0.13390703 -0.03112863 0.06205322 -0.09735173 0.3917551 0.13439217
0.04157139 0.038385674 0.032238405 0.099762976 -0.030602632 0.21159479 0.15698649 0.37033406
0.13890105 0.069347985 0.17552538 0.2622429 -0.03144756 0.06877231 0.15521136 0.027752861
0.071715124 -0.0074853576 -0.04577829 -0.00022597343 -0.06969845 0.276376 0.19730303 0.2203328
0.15085812 0.10961299 0.25553948 -0.055801477 0.12058961 0.17502542 0.057414 0.13540095
0.025951656 0.1490871 0.054165155 0.08643265 -0.020524872 -0.037270553 0.24185081 0.16485663
-8.754039e-05 -0.000624334 -0.004139306 0.2224037 0.18008819 0.031025115 0.09862844 -0.0045067538
0.13937552 0.0074815135 0.19845943 0.052776784 0.06649974 0.08979735 -0.06489576 0.15200198
-0.025046488 -0.034192227 -0.008535339 0.17249738 -0.030318724 0.04644938 -0.00069065456 0.01595328
0.023008382 -0.17706352 0.23599806 0.23112988 -0.0018024374 -0.0015160502 0.112622365 0.051178023
0.17377257 -0.06780348 -0.13243504 0.12829678 0.06539835 -0.31493872 0.21495864 0.18941773
0.14857191 0.15878972 0.06646257 0.010623991 0.14533445 -0.1269173 0.08926822 -3.6407857e-10
0.16394347 0.14519763 0.1034058 0.18486072 -0.09323373 -0.012630319 0.0013132523 0.22392577
0.24340229 -0.009873255 -0.0074704257 0.12438943 -0.015833024 0.0076951096 -0.021808682 0.22372364
0.14181547 0.05290799 -1.3266596e-09 0.23446457 0.045370497 -0.061814502 0.007297588 -0.01371886
0.15923199 0.05425921 -0.043879695 -0.068920635 0.06523053 -0.008620396 0.016196694 0.035516564
0.15127987 -0.011502074 0.0018729273 -0.1248181 0.09932632 0.2655258 0.048946854 0.1698668
0.095525034 0.010076321 0.15752159 0.12614426 0.06882111 -0.031513285 0.123004496 -7.1394905e-05
0.11810442 0.024486503 0.02033992 -0.14522174 0.044324376 -0.00073777675 -0.059656013 -0.05694648
-0.05612386 0.057018705 -0.16852923 -0.13532098 -0.00039268596 0.14828143 -0.0069091744 0.030114595
-0.0007869184 -0.0073651546 -0.031983946 -0.109634764 -0.011632423 -0.034736272 0.24716927 -0.046831015
-0.010730719 -1.235284e-05 0.18482561 0.024374353 -0.19159189 -0.0024242662 0.085561365 0.045555975
0.046337377 -0.001942913 0.06860846 0.12282828 -0.089161225 0.23829648 0.05248472 0.011142848
-0.13128045 -0.0008971608 0.18520904 -1.2410648e-14 0.10346397 -0.017229721 0.12529747 0.12468121
0.15339896 0.052546803 -6.407007e-12 -0.00023825103 0.06054049 -0.00038199913 -0.0076413983 -0.008392852

net.6.weight f4 [128, 256]
00000000: ed8d bb3b 2bb6 7137 2154 f99e 946e a626
00000010: 0c60 ad3b 4ee8 d039 318d 16bd e964 f8bb
00000020: 5b4e 653d 4468 fcba 85b6 a93b db2d a23c
00000030: 8988 bb3c 7ba5 7bbb 9fcf 5ebd b6c0 783b
00000040: 55d9 be80 27b7 1d3b 2f91 2bbc db5d 68bc
00000050: 0d06 09ba 7ab0 6537 16ef 1739 fe4b 78bd
00000060: e7bf 2bbd c6a8 a63a d020 0bbd bf9d a4bd
00000070: a549 533c 6a9b a63c c67a 7bbc cc11 57bd
00000080: 1607 553b 479b a0bd 5b97 7e87 fa95 1522
00000090: 8d1e a53a bb7a ef33 932a 7cbc cd96 c8bc
000000a0: 4fdc 9cbc fff1 54bd b680 c839 8a5e c93b
000000b0: f0bc 21bd c460 f7bc 07b5 cbbd 6762 12bd
000000c0: 3cc4 393a c918 c13a 7268 cebb a973 6d3b
000000d0: 0930 d23c 5a3b 96b7 7e2a f5ba 7539 403d
000000e0: 24da 3432 b4c9 7ebb 390a 7a3b 91b9 1d3e
000000f0: cfdf 66bc 1422 1cbd e467 093c 78b4 283c
00000100: b0ea e93b 3e9e 9ebb a2e5 9e3a c337 b33b
00000110: 3ab7 bdbb 7ae1 67bb 2626 82bb 21a9 9abc
00000120: cf09 39ba 0c77 c33b 59c5 3bbd 4333 79bc
00000130: 819f c5b9 444c 083d 01b0 aaba 5126 89bd
00000140: c0c2 81b9 ac25 9fbb ccd6 b6bb 8baf 4326
00000150: d047 8cbd bcbb 253d b466 a3ba 33f9 5e3d
00000160: 2957 16bd 2efa 53bd 317c b1bc 21c4 823c
00000170: 1055 19bc 9fd4 54bc 86a2 6d3c a9ea 4dbd
00000180: 3673 a3b8 4762 37bc f4c5 cebb cb62 d0bc
00000190: 4e4c be3a c3f4 d3bb fe35 40bb 3645 60bc
000001a0: b418 01b1 d2c8 d834 fa3a 5d3b 7095 63bd
000001b0: ae8b bf3b 0601 bfbb 7fc5 a8bb 45f9 3aae
000001c0: e8f7 20bd d64a 5cbc f9cf 87bd 5c64 aebc
000001d0: d4eb 33bd aafb 27bc a96f 31bd a9bc 50b9
000001e0: fc40 863c a731 073b 5b71 c535 b7fa 903c
000001f0: abfa 7abd 3577 603c 011b d4b7 ef21 d8bb
00000200: 486d 9d3c 46d4 56bd a3c7 d4bc 86e7 68bd
00000210: d757 b838 3883 e137 16e2 31bc ff8c 26bc
00000220: 027f f9bc 405e 103b 2ea9 95bb d130 ebbd
00000230: fd49 23bc 1144 7fbc dbe9 cc3c 709c eabc
00000240: ade8 1dbb 145c bbbc 8a72 67bd 1173 ce3b
00000250: edf3 80bc a349 6c3c e4de b13a 9217 6200
00000260: 8b37 c6bc bab5 36bc d2b6 d0bb 6225 26bd
00000270: e5ed 1d3c 08b7 b9b8 54c3 673c 3efd 4ebb
00000280: 44ec f2bc 1d10 bdba f295 10bb 4b57 96bb
00000290: 1310 98bc 3cd9 f4bb b58c 85bd 94d0 38bc
000002a0: 8d43 9cbd 05e5 81bd 7f1a a72f 8840 65bd
000002b0: 3053 7dbc b1e9 07b5 24ce 0939 8306 b3bc
000002c0: 0d98 07bb dab8 11bc e863 80ba 7de3 0ebc
000002d0: 892b 8fbc f613 f7ba ce9e 463b 5d6e 0dbb
000002e0: a014 f7ba 5846 aebb 81d1 4cbc d187 82bc
000002f0: b692 5fbc 8e64 a73c 1476 febc 82fb 84bb
00000300: 3b90 8c3a 4f93 f1bc d8e8 af3b bfd0 e5bb
00000310: 08db abbc ac11 fbbc ac89 7d3a 5a79 dca5
00000320: 0db9 dcbc 67ef 11bb 9ebb cfbd f390 20bc
00000330: 6991 1dbb 6184 e4b4 f1e4 fe38 f8d8 953c
00000340: 2f6c 30bc bdba babc 2467 8bbb f10e 8fbd
00000350: c0e2 5634 3fb2 67bb 2e29 02bc 3300 b5bc
00000360: d431 f02e a8c2 2dbb 62d0 11bd 0073 1a3c
00000370: 942a 6b37 9c8e 44bb 4a47 61bd 403f 62bc
00000380: 1fca 093b 9e2f 4033 dc81 8bbd da7a 10bd
00000390: 628c d43b eabb 3db9 cef4 20bc 884e f6b9
000003a0: 633f e1bb 6933 6536 e0f1 7237 1719 17bd
000003b0: 88fe 31bd c90c 25bd 5086 15bd 9c67 4322
000003c0: 4715 c5bd 4d81 03b8 2657 1a3b f66a 0280
000003d0: 830f 763b c0b0 ecbc 766c 7cbc 5936 95bb
000003e0: 21c8 423c 07f5 1b3c 9037 1aaa c0de cc33
000003f0: d0c9 b4bb 110b 32b3 7f93 f4ae 950a 71bc
0.005723706 1.4407134e-05 -2.6398695e-20 1.1548536e-15 0.0052909907 0.00039845932 -0.036755744 -0.007580389
0.05598293 -0.0019257148 0.0051792287 0.019797256 0.022892253 -0.0038398195 -0.05439722 0.0037956662
-1.7526708e-38 0.0024065466 -0.010471626 -0.014182533 -0.0005227037 1.3690553e-05 0.00014489549 -0.060619347
-0.04193106 0.0012715093 -0.03396684 -0.080379 0.012895976 0.02033778 -0.015349096 -0.052507207
0.0032505444 -0.07842117 -1.9153316e-34 2.0272662e-18 0.0012597606 1.1151629e-07 -0.01539101 -0.02448597
-0.01914802 -0.051988598 0.0003824287 0.006145303 -0.039486825 -0.030197509 -0.099466376 -0.035738375
0.0007086431 0.0014732118 -0.006299072 0.003623227 0.02565767 -1.7909031e-05 -0.001870468 0.046929795
1.0526978e-08 -0.0038877549 0.0038153066 0.15402819 -0.014091446 -0.038118437 0.008386586 0.010296933
0.0071385726 -0.0048406413 0.0012122879 0.005469294 -0.0057896646 -0.0035382197 -0.003971833 -0.018879475
-0.00070586515 0.005965119 -0.045842502 -0.015209976 -0.00037693608 0.033275858 -0.0013022424 -0.066967614
-0.00024749897 -0.0048567858 -0.005579805 6.789212e-16 -0.06849635 0.04046224 -0.0012466521 0.054436874
-0.036704216 -0.05175226 -0.021665664 0.015962662 -0.009358659 -0.012990146 0.014504081 -0.050272617
-7.7939054e-05 -0.011192865 -0.006310219 -0.025437733 0.001451859 -0.006468387 -0.0029329057 -0.013688376
-1.8786013e-09 4.037925e-07 0.0033757077 -0.055562437 0.0058455085 -0.0058289794 -0.0051504965 -4.25129e-11
-0.03929892 -0.013445577 -0.066314645 -0.02128809 -0.043926075 -0.0102528725 -0.043319378 -0.00019906707
0.016388409 0.002062896 1.4710635e-06 0.017697675 -0.06127421 0.013700296 -2.5284944e-05 -0.006595842
0.019217148 -0.052448533 -0.0259741 -0.056861423 8.790165e-05 2.6883194e-05 -0.010857126 -0.010165452
-0.03045607 0.0022028834 -0.004567287 -0.1148392 -0.009966371 -0.015580193 0.025013855 -0.028639048
-0.0024094984 -0.022871055 -0.056505717 0.006300338 -0.015741313 0.014421853 0.0013570455 9.008334e-39
-0.024196407 -0.011151725 -0.00636945 -0.040562995 0.009639238 -8.85558e-05 0.014145691 -0.003158405
-0.029653676 -0.0014424358 -0.002206203 -0.004588043 -0.018562352 -0.0074721854 -0.06520978 -0.011280198
-0.07630072 -0.0634251 3.039595e-10 -0.055969745 -0.015461728 -5.0631485e-07 0.00013142132 -0.021853691
-0.0020689995 -0.00889417 -0.0009795399 -0.00872123 -0.017476814 -0.0018850553 0.0030307057 -0.0021580674
-0.0018850751 -0.005318444 -0.0125011215 -0.015933903 -0.013645818 0.02043369 -0.031062163 -0.0040583024
0.0010724136 -0.029489188 0.0053683333 -0.00701341 -0.020978466 -0.030648075 0.0009671699 -3.8246147e-16
-0.026943708 -0.002226794 -0.10143207 -0.009800184 -0.002404297 -4.2564628e-07 0.000121543075 0.018291935
-0.0107679805 -0.022794122 -0.0042542387 -0.06985272 2.0012794e-07 -0.0035354046 -0.007944388 -0.022094822
1.0922788e-10 -0.002651373 -0.03559912 0.009426832 1.4017005e-05 -0.0029992228 -0.054999627 -0.013809025
0.0021025015 4.474679e-08 -0.06811878 -0.03527341 0.0064864615 -0.00018094448 -0.009823991 -0.00046979287
-0.0068740114 3.4153584e-06 1.448064e-05 -0.036889162 -0.04345563 -0.040295396 -0.036505044 2.6482278e-18
-0.09623199 -3.1353255e-05 0.002355048 -2.22041e-40 0.0037545867 -0.028892875 -0.0154067185 -0.004553598
0.011888535 0.009518868 -1.3697225e-13 9.540008e-08 -0.005517222 -4.145392e-08 -1.1122036e-10 -0.014711996

net.6.bias f4 [128]
00000000: 6d86 693d a78f 9dbb 7502 8e3e 4e01 793e
00000010: e471 02bf 32fd 12bf 3c36 923c 2aa7 dd3a
00000020: bf80 2cbb df7d 04bc 9551 ab3d 6de4 033e
00000030: 6971 243e 08ac 393e cbd6 843c 4ffd 33b1
00000040: d3a9 a9ba 4e16 a53b ab06 9b3e d757 2d3e
00000050: f63a b53e 03ae 32b9 543f bfb7 3a53 563e
00000060: 6d6a dfbc dc10 e9bb bfec 663e 981f 2dbb
00000070: 26b1 a38d 4828 b03e 6076 a33e 135f 753d
00000080: c8c4 173e afb1 023c 7b5e 63b7 b989 803e
00000090: 0c8a 8f3b 535b 6a3e eb2a 81be e93b 573e
000000a0: 4f87 92bd 3fae 873e 7b43 33bc 0572 dcb4
000000b0: 17b6 5b3e 1527 723e 7e59 f8bb d4c8 a33a
000000c0: 752a acbc 7754 843e 0516 45b9 c931 3e3e
000000d0: c740 993e bcc8 143b 258e 4fba 8835 ba3e
000000e0: cfd7 953e 8485 823e e87a 763e 2864 4c3e
000000f0: 70eb b6b6 1018 0d3b 619b 11bd e2ec fd3c
00000100: 6ef8 efbe 175b 68bb f4b7 833e 5472 a4b4
00000110: 680a eebe 4cd0 3b3e cd60 5c3d 86af 67bc
00000120: 33c0 123e 657e 813e 3dc6 aa3e 6ffd dfbb
00000130: 229c 723e cc83 c4bb 4fbc ee3e c953 86a2
00000140: ef35 e4b8 36cf 533e ed42 953e 1b14 1e3d
00000150: dd2c a63c 7570 853e 902c a4be ea47 3b3e
00000160: ddc6 1f3e 6d2f 3ebc 27ce 8a3e 5671 783e
00000170: ddf6 8b3e 4448 afba da1c 913e 77ae 8f3e
00000180: d87f e43d 8a82 a6b9 6c32 a53b 62f0 223e
00000190: a09e aa3e 6bdc 69bc 56a8 f03d ab82 df3d
000001a0: 345a 493d 1834 9fbc fd71 1fbe 791b 42b6
000001b0: eefd 2c3e 3e16 cbb6 0461 483e 08bc 5a3e
000001c0: dc27 e3bd 3d71 813e e413 8f3e 169a e73d
000001d0: 1cad cdbb 8c83 28bd 20a2 5b3e 074a 883e
000001e0: b371 163e 6382 f4bb ccba 26bf 2ed6 8e3e
000001f0: e3a0 853e 29d8 0bbc 7864 8f3e acac 4ebd
0.057012964 -0.0048083845 0.2773625 0.24316904 -0.50955033 -0.57417595 0.017848127 0.0016910781
-0.0026321856 -0.008086651 0.0836517 0.12880106 0.16058888 0.18132031 0.016215703 -2.6191918e-09
-0.0012944288 0.0050380593 0.30278525 0.1692804 0.35396546 -0.00017040227 -2.2798464e-05 0.20930186
-0.027272427 -0.0071126055 0.22551249 -0.0026416536 -1.00882975e-30 0.34405732 0.3192625 0.059905123
0.1482116 0.007976933 -1.3552252e-05 0.25105074 0.00438047 0.228864 -0.25228056 0.21018948
-0.07154714 0.26500127 -0.010941382 -4.1061153e-07 0.2145618 0.23647721 -0.0075790277 0.0012495765
-0.021016339 0.25845692 -0.00018795587 0.18573679 0.29932234 0.0022702655 -0.00079176045 0.36368966
0.2926621 0.2549249 0.24070323 0.19960082 -5.451431e-06 0.0021529235 -0.03554857 0.030996744
-0.46869224 -0.0035454684 0.25726283 -3.0630565e-07 -0.46492314 0.18341178 0.053803254 -0.014140969
0.1433113 0.25291744 0.3335437 -0.0068356316 0.23692372 -0.0059971567 0.46628043 -3.6409484e-18
-0.00010881933 0.20684513 0.29152623 0.038593393 0.020285064 0.2606236 -0.32065248 0.18289152
0.15603204 -0.011607987 0.27110407 0.24261984 0.2733678 -0.0013372977 0.28342324 0.28062794
0.11157197 -0.00031759246 0.005041411 0.15912011 0.33324146 -0.014273743 0.117508575 0.10913595
0.04915829 -0.01943402 -0.15570827 -2.8924244e-06 0.16893741 -6.052461e-06 0.19568259 0.2136079
-0.11091587 0.25281706 0.27944863 0.113086864 -0.0062767398 -0.041141078 0.21448565 0.26618978
0.1469181 -0.0074618324 -0.6512878 0.2789778 0.2609931 -0.008535423 0.2800634 -0.05045764

net.8.weight f4 [3, 128]
00000000: 1a3e 2cbd 18b3 c3bc c4ed cc3d 4b38 2e3d
00000010: afcd babe ecaa d4be 162d 05bc 6059 dcb9
00000020: 3bce c1bb 75db 6ebb c0e0 95bd 5307 d73d
00000030: 76ff 2bbe cf62 9c3d 960d 2abd 939e 86b7
00000040: d0b5 e53a 42ef 82bc 39ce 183e 0a7b 453c
00000050: a413 b93d be0c 9e39 2613 fc3a ee8c a93d
00000060: da19 1dbc 323c f7ba c735 a03d 3c43 003c
00000070: cf1e c622 f453 823d 65c0 573d 741a 3ebe
00000080: 6cc4 823d d211 38bd 116b 163b 4e23 633d
00000090: 8339 1c3b 6085 3f3d 892f eebd e27c 5d3c
000000a0: fdd9 80bd 517b cf3d 27b6 abbb 536c 8abb
000000b0: 0ca0 d13d bacb c93d 1389 d7ba 086a 68bd
000000c0: 4f5a 06bd 17bc 3dbe 7f82 45b6 ba67 b83d
000000d0: 221b 14be 331d 22bb e37c 5cba 9a58 d83d
000000e0: 68c9 073e a382 a33d 148e c93d e263 b83d
000000f0: 9673 1036 b509 1d3c dfff c03c 8ad2 55be
00000100: 258e 93be 2dfb af39 827d 983d 45ca feb0
00000110: 420f cb3d 332b b23d 9279 33be 392d 33bc
00000120: 8e91 563d 301c e73d 5964 1a3e ed3c 22bb
00000130: 974b 873d 34f6 32bc 4f42 073e b804 37aa
00000140: e8f2 9bba 07bd bb3d 8440 0c3d 05f0 25bd
00000150: 10cf 66bc c024 c23d ff69 19be b7ea 633d
00000160: 5cd0 793c fcb4 bfbc 415c ca3d bb94 14be
00000170: 8b3b c13d 11f8 1cbc 4813 1fbd 15e7 c33d
00000180: bf6c 963c 0ac1 81bb 3130 bcbc b0dd 013d
00000190: bf3f 963d 4ad4 90bb efe1 70bd 9363 1fbe
000001a0: b5de b0bd f56b bfbb 010a 15bd 58ac 13b6
000001b0: 76bb 033e 45db feb5 015f 063d 6201 443d
000001c0: ed7c 95be 60e8 f13d 1907 013e 619d 90be
000001d0: 2ed2 b9bd 595a 803d a265 a23d 0e7b e23d
000001e0: 855a bc3d aa0e 273b 73cb e9bd 0a12 493d
000001f0: f7ae e13d 90cb 3c3c 9544 cb3d 3b82 9dbc
00000200: ff30 613d 1948 13bb 7b44 0c3c b063 e63d
00000210: e599 ed3c 260c 3ebd 4e80 d03b dcc9 563b
00000220: e6c3 31b8 8fe1 0439 95bc e9bd 0842 dc3d
00000230: fcb3 abbc 1053 4b3b 65d6 90bd a8ac 0030
00000240: 00e0 fa3c 3f71 edbb 1030 1b3d e8b4 32bd
00000250: cf44 9dbd 85a3 1bb9 a41a d937 edb5 7cbd
00000260: 3a11 4e3c ea41 69bc 3f98 08bd 45be c3bb
00000270: 5b8a 3700 6ff7 bb3d 79e7 b43b 7a7a d03d
00000280: 3b28 063d 8e73 cc3c 2fdd 2b2e a427 23be
00000290: 7137 ce3d 4e3f 18bd d640 a23c b61e 0bbd
000002a0: 62f3 12be 7a37 64bc b16b 053a 7530 8dbb
000002b0: cee9 9e3c 5e87 aabc 61bd be39 fb44 a5bd
000002c0: 1c79 563d 97c8 e93d 4abd 1098 fbe1 1fbc
000002d0: 664d 2a3e 3934 dfbb 7e06 1eb9 9698 a8bc
000002e0: b169 80bd 4007 743d 01f9 62bd f6b6 5c3c
000002f0: c826 db31 514e 47bb 9d98 e73c 0ffe 103d
00000300: 75e7 69bc 6f0a 9fb9 ddae 453d 817b a781
00000310: aab7 99be e520 e03c b93a d2bc 04a5 ca38
00000320: c7cd 8f3c b3d1 033d 5852 79bd eaae 7cb7
00000330: 7fcd 5d3c 1cdb 77b7 3f51 e33d 2755 91ad
00000340: e8d8 8539 b5e5 4abd f7a1 863d 83c0 d83c
00000350: 6465 613d 7998 ac3c c619 d83c 7ae4 d23c
00000360: 02b9 bfbb fadb d7ba c1f6 bc3c 48ec 9d3d
00000370: 9a15 783b cd64 433b e941 7c3e 1b04 073d
00000380: 6bad dd3b e0e3 34ba 6aac 3f38 cd29 0f3d
00000390: df71 9dbd 34bb b3ba 5984 b3bd f7a5 8cbc
000003a0: fea2 c63d 4a6d 6fbc 2c16 933d e8e1 7194
000003b0: 28a3 0bbb e1d5 4032 a322 713c cc4c 143d
000003c0: 6a06 85bc d003 343d 78a1 293d 399d 033b
000003d0: 2802 0e3d dd09 cf3c b7dc c23c 286a 5c3c
000003e0: 2478 58bd ceec 943b ec0f 8b3e aeba b7bc
000003f0: a1bb 8fbc 1794 a9bc 94ff 83bc 6ee3 003d
-0.042051412 -0.02388911 0.10006288 0.042534154 -0.3648505 -0.41536653 -0.008128425 -0.0004202826
-0.005914477 -0.0036446725 -0.07318258 0.10499444 -0.1679667 0.07636034 -0.041516863 -1.6047887e-05
0.0017525498 -0.015983228 0.14922418 0.012053261 0.09036949 0.00030145602 0.0019231781 0.08278833
-0.009588683 -0.0018862544 0.07822757 0.00782853 5.3700627e-18 0.06363669 0.052673716 -0.18564779
0.06385121 -0.04493887 0.0022952 0.05545359 0.002383799 0.046758056 -0.1163016 0.013518544
-0.06291578 0.101309426 -0.00524022 -0.004224339 0.10235605 0.09853311 -0.001644405 -0.056741744
-0.03280097 -0.18528782 -2.9431246e-06 0.09004159 -0.14463475 -0.0024736642 -0.00084109436 0.105637744
0.13260424 0.07983901 0.098415524 0.09003426 2.1524952e-06 0.009584834 0.023559509 -0.20881096
-0.28819385 0.00033565742 0.07445814 -1.8538421e-09 0.099150196 0.08699646 -0.17526844 -0.010936075
0.052384906 0.11284673 0.15077342 -0.0024755553 0.066062145 -0.010922957 0.13208888 -1.6255302e-13
-0.0011897953 0.091669135 0.034241214 -0.040512104 -0.0140874535 0.09479666 -0.1498184 0.055643763
0.015247431 -0.02340173 0.09880877 -0.14509861 0.09435185 -0.009580628 -0.038836747 0.0956556
0.018362401 -0.0039597796 -0.022972198 0.03170556 0.07336377 -0.004419838 -0.058809217 -0.15565328
-0.08636228 -0.005841727 -0.036386494 -2.2005024e-06 0.1286448 -1.898829e-06 0.032805447 0.04785288
-0.29196873 0.118119 0.12600364 -0.2824507 -0.09073292 0.062672324 0.07929541 0.11058627
0.09196953 0.0025490918 -0.11415758 0.04908947 0.110197 0.011523142 0.0992519 -0.019227138
0.054978367 -0.0022473393 0.008561249 0.11249483 0.029004047 -0.046398304 0.0063629514 0.0032774126
-4.2382533e-05 0.00012672528 -0.11412922 0.10754782 -0.020959847 0.003102485 -0.070721425 4.681149e-10
0.03062439 -0.007246166 0.037887633 -0.043629557 -0.0767914 -0.00014842868 2.5880821e-05 -0.061696935
0.012577349 -0.014236907 -0.03334832 -0.0059736096 5.100585e-39 0.091780536 0.0055207578 0.101796106
0.03275321 0.024957445 3.907735e-11 -0.1593309 0.10069168 -0.037169747 0.019806307 -0.033964835
-0.14350656 -0.013929242 0.00050895946 -0.004308755 0.019398596 -0.020816501 0.00036380722 -0.080697976
0.052361593 0.114152126 -1.870713e-24 -0.009758468 0.16631088 -0.0068116453 -0.00015070473 -0.020580571
-0.06270159 0.059577227 -0.05541325 0.013471356 6.378148e-09 -0.003041167 0.028271014 0.03539854
-0.014276375 -0.00030334617 0.048262466 -6.152333e-38 -0.30022937 0.027359435 -0.025662767 9.662847e-05
0.017554177 0.032182407 -0.060869545 -1.5061096e-05 0.013537764 -1.4773363e-05 0.11099481 -1.6522407e-11
0.00025529345 -0.049535472 0.06573861 0.026458984 0.055028334 0.021068798 0.026379477 0.025743712
-0.005850912 -0.0016468756 0.02306688 0.07711083 0.0037854672 0.002981472 0.24634518 0.0329629
0.006765058 -0.0006900411 4.569852e-05 0.034951974 -0.07687735 -0.0013712407 -0.08765478 -0.017168982
0.09699057 -0.014613459 0.07181963 -1.2211943e-26 -0.0021306966 1.1224501e-08 0.014717731 0.03620605
-0.01623841 0.04394895 0.041413754 0.0020082726 0.034670025 0.025273258 0.023786886 0.013453044
-0.05284895 0.004544831 0.27160585 -0.022427883 -0.017545523 -0.020700498 -0.01611308 0.031466894

net.8.bias f4 [3]
00000000: d762 c73d 7e80 cabc cf38 d43d
0.09735649 -0.024719473 0.10362398
